data/autoencoder.pth (torch, 10951 bytes, 12 tensors)

encoder.0.weight f4 [32, 2]
0	0xbec8d1d7	-0.39222595
1	0x3e3d1d66	0.18468246
2	0xbef1058a	-0.47074538
3	0x3e8aaee3	0.27086553
4	0x3ebd510a	0.3697589
5	0x3e943fb4	0.28954852
6	0x3ebe4b73	0.37166938
7	0x3d149228	0.036272198
8	0xbd54da18	-0.051965803
9	0x3f1a0bcc	0.6017425
10	0x3ecb01d0	0.3964982
11	0x3f3969c6	0.7242702
12	0x3e9d1a96	0.30684346
13	0xbeacdc51	-0.33761838
14	0xbd4dd1b7	-0.050248828
15	0x3ea6fb33	0.32613525
16	0x3f0539da	0.520414
17	0xbf04dcbc	-0.51899314
18	0x3ea2c7c8	0.31793046
19	0xbea93184	-0.3304559
20	0xbf08940b	-0.53350896
21	0xbe1e6a9f	-0.1547036
22	0x3f2220ac	0.63331103
23	0x3e973297	0.29530784
24	0xbe9b1df2	-0.30296284
25	0x3e51c7f4	0.20486432
26	0x3cdd8e4d	0.027045393
27	0x3ea87091	0.3289838
28	0x3d90129c	0.070347995
29	0xbe53901d	-0.20660444
30	0x3dad78e3	0.08470323
31	0xbe89cb3e	-0.26912874
32	0x3ead76ef	0.33879802
33	0x3f040e59	0.5158439
34	0x3d687545	0.056752462
35	0xbf0f57c1	-0.55993277
36	0x3d819869	0.06327898
37	0x3f191323	0.59794825
38	0x3da31b49	0.079641886
39	0x3f4394ae	0.7639874
40	0xbf20f3d7	-0.6287207
41	0x3e736695	0.237696
42	0x3b3eaf5c	0.0029096222
43	0xbe6981e7	-0.2280346
44	0xbe2acbd2	-0.16679314
45	0x3f01813a	0.5058781
46	0xbebd18e0	-0.3693304
47	0xbf0fa1bc	-0.5610616
48	0x3f36a6f2	0.7134849
49	0x3ebff0ec	0.37488496
50	0xbe03e8c4	-0.12881762
51	0x3f32a62a	0.69784796
52	0xbf38a168	-0.72121286
53	0x3f076620	0.52890205
54	0x3e44ad55	0.19206746
55	0xbe1e0e78	-0.15435207
56	0xbb5f2a07	-0.003405215
57	0xbddd7641	-0.10813571
58	0x3e4c9cbd	0.19981666
59	0x3e988f22	0.29796702
60	0x3f06ecf9	0.5270534
61	0x3e86b82f	0.26312396
62	0xbd88475f	-0.06654238
63	0xbe834ade	-0.25643057

encoder.0.bias f4 [32]
0	0x3f297138	0.66188383
1	0x3f07d598	0.53060293
2	0xbf026ec7	-0.5095028
3	0xbd4ce5de	-0.050023906
4	0x3f241f49	0.6411024
5	0xbd847f73	-0.064696215
6	0xbf180d00	-0.59394836
7	0x3f1f7140	0.6228218
8	0xbe5a0a40	-0.21292973
9	0x3eb9ba1a	0.36274797
10	0xbd483b32	-0.048884578
11	0xbf397af6	-0.7245325
12	0xbe47f5f3	-0.19527416
13	0xbd2de79c	-0.042457208
14	0xbf228024	-0.6347678
15	0xbe99e4bb	-0.3005732
16	0xbec50a69	-0.38484505
17	0x3f141d66	0.5785736
18	0x3eb7ef79	0.3592489
19	0xbf004b64	-0.50115037
20	0x3d20ff1e	0.0393058
21	0x3eb1fc1a	0.3476265
22	0x3ea90bb1	0.33016732
23	0xbe6a5304	-0.2288323
24	0xbecfd137	-0.40589306
25	0x3ee32d0c	0.44370306
26	0x3ecee5e3	0.40409765
27	0xbd0219ec	-0.031763002
28	0x3e9cd6ff	0.3063278
29	0xbf08d7a1	-0.53454024
30	0x3eeca35b	0.4621838
31	0xbe5a89cc	-0.21341628

encoder.2.weight f4 [16, 32]
0	0xbe1e6223	-0.15467124
1	0xbde90edd	-0.11379788
2	0x3d8ea38f	0.0696479
3	0x3dec41f0	0.11536014
4	0xbcfccfb5	-0.030860761
5	0x3d3f294f	0.046670254
6	0x3ce13a88	0.02749373
7	0xba68c49a	-0.00088793936
8	0x3dea2602	0.11433031
9	0xbcb6ff90	-0.022338659
10	0xbd6a6c02	-0.05723191
11	0x3ca831ee	0.02053162
12	0x3baba407	0.0052380594
13	0xbd3bf51d	-0.045888055
14	0xbdee819c	-0.11645815
15	0x3d9a11d7	0.07522934
16	0x3d151d6e	0.03640502
17	0x3df2b9e6	0.118518636
18	0x3d228491	0.039677206
19	0xb82e8f40	-4.1618245e-05
20	0xbbde8d2a	-0.0067917304
21	0xbdabce0d	-0.083889104
22	0xbda7b311	-0.08188451
23	0xbe1bd937	-0.1521958
24	0x3d9686fc	0.07349965
25	0x3c93410a	0.017975349
26	0x3d3c98a1	0.046043996
27	0xbc80dc3b	-0.015730014
28	0x3e23c65c	0.15993637
29	0xbd8e96e1	-0.069623716
30	0x3e559e7c	0.20861238
31	0xbd513279	-0.051073525
32	0x3db97f38	0.09057468
33	0x3d498e39	0.0492079
34	0xbdc219a1	-0.094775446
35	0x3d413907	0.047173526
36	0x3cd955ca	0.026530165
37	0x3e1d3549	0.15352358
38	0xbe06ee92	-0.13176945
39	0x3e57e582	0.21083644
40	0xbe38a7eb	-0.18032806
41	0xbdc2f92a	-0.095201805
42	0x3ca78195	0.020447532
43	0x3ccce52d	0.025011623
44	0xbcf1d76a	-0.029521663
45	0x3e4d2f64	0.2003761
46	0xbe0c3a1d	-0.13694043
47	0xbe325e88	-0.17418873
48	0x3d794f93	0.060866904
49	0xbc600fc7	-0.013675637
50	0x3d19897d	0.037484635
51	0x3e037d9b	0.12840883
52	0x3e4e2f25	0.20135172
53	0x3d8d773d	0.069075085
54	0xbd8302b9	-0.06397004
55	0xbdfd5d5e	-0.12371324
56	0xbbae0f5e	-0.0053118905
57	0x3e40a905	0.18814476
58	0x3e2b99a6	0.16757831
59	0x3d750ee2	0.059828646
60	0xbc5c7b63	-0.013457152
61	0xbb4523c2	-0.0030081128
62	0x3dedad91	0.11605371
63	0xbe031ba6	-0.12803516
64	0x3e29f7b8	0.16598403
65	0xbdca421f	-0.09875893
66	0x3e09be0b	0.13451402
67	0x3e0919da	0.13388768
68	0x3e3d434b	0.18482701
69	0x3dbbbbb5	0.09166662
70	0x3e23a0f2	0.15979365
71	0x3e4678c7	0.1938201
72	0x3dc295d2	0.09501232
73	0x3def9a97	0.116994075
74	0xbdbd5d04	-0.09246257
75	0xbcc863d8	-0.024461672
76	0x3c9b3491	0.018945964
77	0xbcc5cf98	-0.02414684
78	0x3cc66f03	0.024222856
79	0xbdee7a38	-0.11644405
80	0x3dbb9699	0.091595836
81	0xbdd4761b	-0.10374089
82	0x3d229953	0.039697003
83	0x3e28d30d	0.1648676
84	0x3e42074e	0.18948099
85	0xbdcf4bf8	-0.10121912
86	0x3dbfc488	0.09363657
87	0xbe47c267	-0.19507752
88	0x3d1a6533	0.037694167
89	0x3c49b7d8	0.012311898
90	0x3df0557c	0.11735055
91	0x3e56f2f5	0.20991118
92	0x3dcf6208	0.1012612
93	0xbd8d9062	-0.069123045
94	0x3db6600d	0.08905039
95	0xbdba4a97	-0.09096258
96	0xbd039768	-0.032126814
97	0xbdbf925d	-0.093540885
98	0x3cbf2558	0.023333237
99	0x3daa5142	0.0831628
100	0xbd56729e	-0.0523554
101	0xbde975db	-0.11399432
102	0x3cb9c890	0.022678643
103	0x3c81aec8	0.015830413
104	0xbdadffb4	-0.08496037
105	0x3de50522	0.1118262
106	0x3d89ba22	0.06724955
107	0x3dbe10b6	0.09280531
108	0xbe1f4b57	-0.15556084
109	0xbdbeb3f4	-0.09311667
110	0xbd739d1e	-0.05947601
111	0xbcdc74c0	-0.02691114
112	0xbe34d920	-0.17660952
113	0xbb826840	-0.0039797127
114	0xbe072774	-0.13198644
115	0xbd618c32	-0.05506534
116	0x3c8dd538	0.017313585
117	0x3e08c4ff	0.13356398
118	0x3dc070e6	0.09396534
119	0xbe157eb1	-0.1459911
120	0xbd301f28	-0.042998463
121	0x3de196be	0.1101508
122	0xbe0673ea	-0.13130155
123	0xbe0509d2	-0.12992027
124	0xbe2efba5	-0.17088182
125	0x3df80cd2	0.1211182
126	0xbdd204d7	-0.102548294
127	0x3e2708df	0.16311978
128	0x3c35c343	0.011093917
129	0x3bf67d07	0.0075222286
130	0x3dbd99d6	0.092578575
131	0x3e0e9aa5	0.1392618
132	0xbd18524a	-0.037187852
133	0xbd3799b8	-0.044824332
134	0xbe0348ef	-0.1282079
135	0xbd035002	-0.032058723
136	0x3d690224	0.056886807
137	0xbe34cfdd	-0.17657419
138	0xbb9e801c	-0.004837049
139	0xbd86d060	-0.06582713
140	0x3de85913	0.113451146
141	0x3cee5c9c	0.029096894
142	0x3d8a8976	0.067645
143	0xbdc899fe	-0.09794997
144	0xbe0cb6e1	-0.13741638
145	0xbd9e70de	-0.077363715
146	0xbe48c88b	-0.19607751
147	0x3d0df892	0.034660883
148	0x3d3fc4d5	0.046818573
149	0x3d5ad0e7	0.05342188
150	0xbd32b765	-0.04363193
151	0xbd95d849	-0.07316644
152	0xbe07e01f	-0.13269089
153	0x3e1b1bbc	0.15147299
154	0xbbe77716	-0.0070637567
155	0xbe278ad2	-0.1636155
156	0x3d41fe7f	0.047361847
157	0x3df6b80e	0.120468244
158	0x3dc64333	0.09680786
159	0xbde758e4	-0.112962514
160	0x3e06f726	0.13180217
161	0x3e014ccd	0.12626953
162	0x3c76b87a	0.015058631
163	0xbe0e57fd	-0.13900752
164	0xbce35899	-0.027752208
165	0x3dc19de4	0.09453943
166	0xbd2d25c6	-0.04227235
167	0x3ddee71d	0.10883925
168	0x3d1e7145	0.03868224
169	0xbe2c912b	-0.16852252
170	0x3ccf2a96	0.025288861
171	0x3da650e2	0.08120896
172	0x3e30d0e4	0.17267185
173	0x3e067806	0.13131723
174	0xbdbe9c9c	-0.093072146
175	0xbd0ef913	-0.034905504
176	0xbdefab5b	-0.11702605
177	0x3e311d17	0.17296253
178	0x3d0d0122	0.03442491
179	0x3e40c339	0.18824472
180	0x3e35597d	0.17709918
181	0x3ddb80a9	0.10717899
182	0x3e14e7ee	0.14541599
183	0x3e27b3e4	0.16377217
184	0xbe40bf37	-0.18822943
185	0x3da67c3f	0.08129167
186	0x3e528ce1	0.20561554
187	0xbd8cdaf8	-0.068777025
188	0x3e1f9298	0.15583265
189	0xbd1ed452	-0.038776703
190	0xbd8c15a3	-0.068400644
191	0x3e35b178	0.1774348
192	0x3d6a2a23	0.05716909
193	0xbda9fb38	-0.08299869
194	0xbe28b00e	-0.1647341
195	0xbe2bf54a	-0.16792789
196	0xbe4731d8	-0.19452608
197	0x3dc4d2db	0.0961053
198	0xbc710390	-0.014710322
199	0xbdb97aed	-0.09056649
200	0x3e31fb11	0.1738093
201	0xbd738ce8	-0.05946055
202	0xbd255b2a	-0.040370144
203	0xbd70a173	-0.05874772
204	0xbe2190e1	-0.15777923
205	0xbd9de294	-0.07709232
206	0x3df14a36	0.11781733
207	0xbd205818	-0.039146513
208	0x3d90515e	0.070467696
209	0xbda4d54f	-0.08048498
210	0x3d291022	0.04127515
211	0xbd888643	-0.066662334
212	0x3d1232ad	0.03569286
213	0xbe354d2b	-0.17705218
214	0x3e01c68d	0.12673397
215	0xbe01a71f	-0.12661408
216	0xbd46e551	-0.048558537
217	0x3e045bd0	0.12925649
218	0x3d330e35	0.04371472
219	0xbd1942c4	-0.03741719
220	0x3bf6d560	0.0075327605
221	0xbc5c905d	-0.013462153
222	0xbe33cf04	-0.17559439
223	0x3d246a94	0.040140703
224	0xbdffd952	-0.124926224
225	0xbcc27e81	-0.023741962
226	0x3d5f8be7	0.05457678
227	0xbd9c5ed3	-0.07635274
228	0xbdf48a43	-0.11940434
229	0x3deb9d0a	0.11504562
230	0xbd7a21b8	-0.061067313
231	0x3e066016	0.13122591
232	0x3e4d047e	0.20021245
233	0x3ddaef4e	0.10690175
234	0xbd759d4e	-0.05996447
235	0x3cd998d3	0.02656213
236	0x3e30632f	0.17225336
237	0x3cfde576	0.030993205
238	0x3cdd5967	0.02702017
239	0xbdf2f224	-0.11862591
240	0xbd90ffad	-0.07080016
241	0x3dbfcb0e	0.093649015
242	0x3e43ce82	0.19121745
243	0xbda5f7f4	-0.08103934
244	0xbdbc6ef9	-0.09200854
245	0x3dda63ab	0.106635414
246	0xbdce1b5a	-0.10063811
247	0xbddeca2b	-0.10878404
248	0xbc6ef4aa	-0.0145847
249	0x3c7a4ea2	0.015277537
250	0xbe2d6839	-0.16934289
251	0x3e28ea57	0.16495644
252	0x3e35d06a	0.17755285
253	0x3cc13eb2	0.023589466
254	0xbd79e0ff	-0.06100559
255	0xbd36ce86	-0.04463055

encoder.2.bias f4 [16]
0	0x3e5aac7f	0.21354865
1	0x3d991c91	0.07476152
2	0x3e35f7dc	0.17770332
3	0xbe2ebe70	-0.17064834
4	0xbe114eea	-0.1419026
5	0xbda20ae5	-0.07912234
6	0xbdef8806	-0.11695866
7	0x3e076ad0	0.1322434
8	0xbda49f78	-0.08038229
9	0x3e0afc5e	0.13572833
10	0x3dd0bfd1	0.10192836
11	0x3cf76fca	0.030204672
12	0x3e5d1c7f	0.21592902
13	0xbc47105e	-0.012149898
14	0xbe07191f	-0.13193177
15	0x3c149019	0.009067559

encoder.4.weight f4 [8, 16]
0	0xbdfd7fb0	-0.1237787
1	0xbd326f7f	-0.043563362
2	0x3d802be5	0.06258372
3	0x3e5a97ec	0.21347016
4	0x3d3d0b9e	0.046153657
5	0x3dfea7dc	0.124343604
6	0x3d05ae72	0.032637067
7	0x3e596392	0.2122939
8	0xbe0183e4	-0.12647969
9	0xbd695646	-0.056967042
10	0x3d7df8d5	0.062004883
11	0x3c83d637	0.016093357
12	0xbe08af2d	-0.13348074
13	0x3e08c41c	0.1335606
14	0x3e45b6a6	0.19307956
15	0x3dc294b3	0.095010184
16	0x3ddacf3d	0.10684059
17	0xbe3931f6	-0.18085465
18	0x3e99a7de	0.30010885
19	0xbc215cc0	-0.0098487735
20	0x3d1e4d00	0.03864765
21	0xbe00b669	-0.12569584
22	0xbe3ee441	-0.1864176
23	0x3d2ee491	0.042698447
24	0xbe8306a3	-0.25591
25	0xbe082b55	-0.1329778
26	0xbe6a3baf	-0.2287433
27	0x3d88f03e	0.066864476
28	0xbbb03304	-0.0053771753
29	0x3e1fa1a4	0.15589005
30	0xbdbf981c	-0.093551844
31	0x3e00c58f	0.12575363
32	0x3bf167f8	0.0073671304
33	0xbe320e36	-0.17388234
34	0xbe4a9edf	-0.19787167
35	0x3b90ce00	0.0044190884
36	0x3e449e52	0.1920102
37	0xbc85ca52	-0.016331825
38	0xbd23b658	-0.03996882
39	0xbe4fd21c	-0.20294994
40	0xbd9947da	-0.07484408
41	0xbde5bd41	-0.11217738
42	0xbdaa7c20	-0.08324456
43	0xbc894980	-0.01675868
44	0x3dcc1ca5	0.09966401
45	0x3e00a4d7	0.12562881
46	0x3e0c7856	0.1371778
47	0x3e6f27c1	0.23355009
48	0xbe63800e	-0.22216818
49	0xbd3b2eab	-0.045698803
50	0xbdb87ad8	-0.090078056
51	0xbe4ee37e	-0.20203969
52	0xbd783860	-0.06060064
53	0x3e2b01e6	0.16699943
54	0x3ddf30f8	0.10898012
55	0xbd2d36eb	-0.042288702
56	0xbde5efe2	-0.11227395
57	0xbc2bfae0	-0.010496825
58	0xbd15b841	-0.03655267
59	0x3da13965	0.07872275
60	0xbe2a5386	-0.16633424
61	0x3e8ccd84	0.27500546
62	0x3e123ef8	0.14281833
63	0x3d90e60a	0.070751265
64	0x3e207e8e	0.15673277
65	0xbe94b2c5	-0.2904264
66	0x3e2544b2	0.16139486
67	0x3d3a9848	0.045555383
68	0xbdd323d4	-0.10309568
69	0xbdb1e60b	-0.08686455
70	0x3e71784a	0.23581043
71	0xbdaff532	-0.08591689
72	0x3e3c0a12	0.18363217
73	0xbc3c1df2	-0.011481749
74	0xbe423237	-0.18964468
75	0x3c045efc	0.008079287
76	0xbe19779e	-0.14987037
77	0x3d978800	0.07398987
78	0x3b630400	0.0034639835
79	0xbe6d8616	-0.23195681
80	0x3e813245	0.25233665
81	0x3e87b532	0.2650543
82	0x3d248f45	0.040175695
83	0xbd3b3110	-0.045701087
84	0xbddf90f3	-0.10916319
85	0xbdc40343	-0.095709346
86	0x3e00c409	0.12574781
87	0x3e2d8b05	0.16947563
88	0xbce76328	-0.028245524
89	0x3e332bb7	0.17497145
90	0xbe816a0c	-0.2527622
91	0xbe0e7e36	-0.13915333
92	0x3da61d26	0.081110284
93	0xbc63c67f	-0.013902306
94	0x3e6b39da	0.22971287
95	0xbe12623e	-0.14295289
96	0xbe56562f	-0.20931314
97	0x3e6f6fa7	0.23382436
98	0x3e998fa0	0.2999239
99	0xbe30a3d2	-0.17249992
100	0xbe3fc687	-0.18728076
101	0x3e65925a	0.2241911
102	0xbe340f07	-0.17583857
103	0xbe0ed489	-0.13948263
104	0x3e058c8c	0.13041896
105	0xbe9c35e5	-0.30509868
106	0x3cd2ff36	0.02575646
107	0xbe17d29e	-0.14826438
108	0x3e83808f	0.2568402
109	0xbe9ade6b	-0.30247816
110	0x3d9ea8e4	0.07747057
111	0x3e7b7a95	0.2455848
112	0xbdac24a4	-0.08405426
113	0xbdbb5e78	-0.09148878
114	0xbd9abbd0	-0.07555354
115	0x3e550ed4	0.20806438
116	0x3d9228c9	0.071366854
117	0x3e00e589	0.1258756
118	0xbcde2180	-0.027115583
119	0xbb9caec0	-0.004781574
120	0xbe7e85c4	-0.24855715
121	0xbdf29140	-0.118441105
122	0xbd2833a2	-0.041064866
123	0xbe3f3c4e	-0.18675348
124	0x3e2c85c2	0.168479
125	0xbe66692c	-0.22501057
126	0xbdfaabbc	-0.12239787
127	0xbccb8930	-0.02484569

encoder.4.bias f4 [8]
0	0x3dcfddc0	0.10149717
1	0x3e23d566	0.15999374
2	0x3e7be8c6	0.24600515
3	0xbe0cb012	-0.1373904
4	0xbe557c0b	-0.208481
5	0x3e6df298	0.23237073
6	0x3e1acdfd	0.15117641
7	0xbe5ed598	-0.21761167

decoder.0.weight f4 [16, 8]
0	0x3e15123c	0.14557737
1	0xbe91cf51	-0.28478482
2	0x3e47bef0	0.1950643
3	0x3e7f8b08	0.2495538
4	0xbe1122f3	-0.14173488
5	0xbdbaf180	-0.09128094
6	0x3ec86766	0.39141387
7	0x3c407683	0.011747005
8	0x3e87d34f	0.26528403
9	0xbe5607dd	-0.20901437
10	0x3e81306a	0.2523225
11	0x3e347c62	0.17625573
12	0x3db449dc	0.0880315
13	0xbe23e1cd	-0.16004105
14	0x3e1f958f	0.15584396
15	0xbe37a681	-0.1793461
16	0xbea51282	-0.32240683
17	0xbe2d36a8	-0.16915381
18	0xbe87c30a	-0.2651599
19	0x3e94e517	0.29081032
20	0x3e837a6d	0.2567934
21	0xbe78fe24	-0.24315697
22	0x3d9a4944	0.075335056
23	0x3de7facc	0.113271326
24	0xbe54051c	-0.20705074
25	0xbd4dd9e7	-0.050256636
26	0xbd39f24a	-0.04539708
27	0xbe958844	-0.29205525
28	0xbe54890a	-0.20755401
29	0x3d85ed6e	0.06539427
30	0x3e9fb27d	0.31190863
31	0xbeb00984	-0.3438226
32	0x3d46e2c4	0.048556104
33	0x3ec09f4f	0.37621543
34	0xbe7e633b	-0.24842541
35	0x3e620d12	0.22075298
36	0xbdc3674a	-0.09541185
37	0x3e6dd46a	0.23225561
38	0xbe67f0c7	-0.22650443
39	0xbe8e81dc	-0.2783345
40	0xbd47adc1	-0.04874969
41	0x3ebab4d9	0.364661
42	0xbe9d2a37	-0.3069627
43	0xbe96ecc2	-0.29477507
44	0xbde78f7d	-0.11306665
45	0x3e45bb2d	0.19309683
46	0x3e4937e4	0.19650227
47	0x3e7c8c3e	0.24662873
48	0xbea39f20	-0.3195734
49	0xbda8e4a0	-0.08246732
50	0xbd59bfb0	-0.053161323
51	0x3e5fe6ee	0.21865436
52	0xbd8f3e44	-0.06994298
53	0x3daacb14	0.08339515
54	0xbe0b03ab	-0.13575618
55	0x3e36934e	0.1782963
56	0x3e3a5c5e	0.18199298
57	0xbe197899	-0.1498741
58	0xbe37926d	-0.17926951
59	0xbe4fe464	-0.20301968
60	0x3e824add	0.2544774
61	0xbbab8040	-0.0052337945
62	0xbc74dc00	-0.01494503
63	0x3e7f9afe	0.24961469
64	0x3ea12f0e	0.31481212
65	0xbde65912	-0.112474576
66	0x3e6e82a9	0.2329203
67	0xbeac92a8	-0.3370564
68	0xbdb9f7d8	-0.090804756
69	0xbe09f5c3	-0.13472657
70	0xbe116007	-0.14196788
71	0x3e506326	0.20350322
72	0x3e56e6d7	0.20986496
73	0xbe73d7bc	-0.23812765
74	0xbe13be5d	-0.14428087
75	0xbe11ebbf	-0.14250086
76	0xbdd6676a	-0.104689434
77	0xbe968bf1	-0.29403642
78	0xbe9aa17f	-0.30201337
79	0xbe96d769	-0.2946122
80	0xbe67b049	-0.22625841
81	0xbe65c084	-0.2243672
82	0xbe8bcbde	-0.27303976
83	0x3c5536c0	0.013013542
84	0xbea4fb63	-0.32223043
85	0x3a802676	0.0009777087
86	0xbeb8802f	-0.36035296
87	0xbe66e7c6	-0.22549352
88	0x3e827278	0.25477958
89	0xbeb3c04b	-0.35107645
90	0xbe9c084c	-0.3047508
91	0xbeacdfe3	-0.33764562
92	0x3d4b8388	0.049685985
93	0x3e414104	0.18872458
94	0x3ec96c0b	0.39340243
95	0xbe99f6e1	-0.30071166
96	0xbe376135	-0.17908175
97	0xbd040e45	-0.03224017
98	0x3dc41c18	0.09575671
99	0x3ea392fd	0.3194808
100	0xbe4b245b	-0.19838087
101	0x3e0972c0	0.1342268
102	0xbd5b84b3	-0.05359335
103	0xbe86d612	-0.26335198
104	0xbe8f38ce	-0.27973026
105	0xbe314403	-0.173111
106	0xbdfa6f6d	-0.12228284
107	0xbdb437e6	-0.08799724
108	0x3c9e7cb1	0.019346567
109	0x3e5544e9	0.20827068
110	0x3e1b085c	0.15139908
111	0xbe5cf21b	-0.21576731
112	0xbe392784	-0.1808148
113	0x3c8c0466	0.017091941
114	0xbb99e1a2	-0.004696087
115	0xbd2afddb	-0.041746
116	0xbdd2662e	-0.102733955
117	0x3dcab8c9	0.09898526
118	0xbd9d9f4c	-0.07696399
119	0xbd9af10c	-0.07565507
120	0xbe4a5014	-0.1975711
121	0x3e3b6121	0.1829877
122	0x3e4db033	0.20086746
123	0x3e64a582	0.22328761
124	0xbe48b856	-0.19601569
125	0x3d378206	0.044801734
126	0x3ec6d404	0.3883363
127	0xbe9d0df4	-0.30674708

decoder.0.bias f4 [16]
0	0x3da05ce8	0.078302205
1	0x3e0e6382	0.13905147
2	0xbde47f62	-0.11157109
3	0x3e9501d8	0.2910297
4	0x3dc9e465	0.09858016
5	0xbbf753a6	-0.0075478135
6	0xbdeb2af0	-0.11482799
7	0xbe5e28e8	-0.21695292
8	0xbdbf351d	-0.093363024
9	0x3d77d909	0.060509715
10	0x3dbf2cf6	0.093347475
11	0xbc85354f	-0.016260771
12	0xbde844f1	-0.113412745
13	0x3ebe2439	0.3713701
14	0x3dca55b9	0.098796315
15	0xbd22db20	-0.039759755

decoder.2.weight f4 [32, 16]
0	0xbdf5f884	-0.12010291
1	0xbe094e16	-0.13408694
2	0x3e22b3ee	0.1588895
3	0xbb8e241b	-0.0043378
4	0x3e63a9b9	0.22232713
5	0xbdb3de7b	-0.08782669
6	0x3d6e2328	0.058138996
7	0xbe2a2354	-0.16615039
8	0xbda0ed4b	-0.0785776
9	0x3e037e5e	0.12841174
10	0x3d8cade0	0.068691015
11	0xbd9cfb4e	-0.0766512
12	0xbe10f82f	-0.14157175
13	0x3e841a52	0.2580133
14	0xbe459fb7	-0.19299208
15	0xbc804f34	-0.015662767
16	0x3e0a33ad	0.13496275
17	0xbe0127d1	-0.12612845
18	0xbe51c78e	-0.2048628
19	0xbe304d16	-0.17216906
20	0x3e8e8d03	0.27841958
21	0x3e15325b	0.1456999
22	0xbdac2d94	-0.08407131
23	0x3e31b4a8	0.17354071
24	0x3e662875	0.2247637
25	0x3e961dce	0.29319614
26	0x3e6e51ea	0.23273435
27	0xbe9cc446	-0.30618495
28	0xbd25a6e6	-0.04044237
29	0x3e4d74a8	0.20064032
30	0x3d6ea738	0.05826494
31	0xba6d40dc	-0.00090504973
32	0x3e6172e1	0.22016479
33	0xbcc9e9ff	-0.02464771
34	0x3d0d5c00	0.034511566
35	0x3e7ce0ac	0.2469508
36	0x3d0d7efc	0.03454493
37	0xbe434c45	-0.19072063
38	0xbd7f56e0	-0.06233871
39	0xbdd4b5d8	-0.103862464
40	0xbe852ac2	-0.26009184
41	0x3e13de71	0.14440323
42	0xbe773372	-0.24140719
43	0x3e9201bf	0.28516957
44	0xbc0254c6	-0.007954782
45	0xbe53b0fe	-0.20672986
46	0xbe8aa944	-0.27082264
47	0xbd9bd80e	-0.076095685
48	0xbe392382	-0.18079951
49	0xb90fd800	-0.00013718009
50	0x3e0bb7d8	0.1364435
51	0x3da24108	0.0792256
52	0xbe36aadc	-0.17838615
53	0x3e21a7d2	0.15786675
54	0x3d6e42d0	0.058169186
55	0xbe22fd24	-0.15916878
56	0xbe4e3a30	-0.20139384
57	0x3dfa0bb0	0.122092605
58	0x3e4587a6	0.19290027
59	0xbe4caa98	-0.19986951
60	0xbd7a0338	-0.061038226
61	0x3d53ece8	0.051739603
62	0x3c622be0	0.013804406
63	0xbe20e724	-0.15713173
64	0x3e188f1d	0.14898343
65	0xbe17a2e4	-0.14808232
66	0xbd4f46c8	-0.05060461
67	0x3dc2c026	0.09509306
68	0xbd4050e8	-0.04695216
69	0xbe6768fe	-0.22598645
70	0xbddafbd8	-0.10692567
71	0xbd90ab0c	-0.070638746
72	0x3b337b00	0.0027386546
73	0x3dcb68fc	0.099321336
74	0x3d5b37c0	0.053519964
75	0xbccc20bf	-0.024917958
76	0x3e37df20	0.17956209
77	0xb988d60a	-0.00026099413
78	0x3e0c034a	0.1367313
79	0x3e53f9b5	0.20700724
80	0x3da65065	0.08120803
81	0xbd331c8c	-0.043728396
82	0x3e15effe	0.14642331
83	0xbe64d578	-0.22347057
84	0x3db58ca9	0.088647194
85	0x3e706d59	0.23479213
86	0x3d8291ac	0.06375441
87	0xbc8b4b90	-0.017003804
88	0xbe096ba6	-0.13419971
89	0x3cfdc530	0.030977815
90	0xb6620000	-3.3676624e-06
91	0xbe672f19	-0.2257656
92	0x3e4122a0	0.18860865
93	0xbe50ef44	-0.20403773
94	0x3de2a2f6	0.110662386
95	0xbd44d3d5	-0.04805358
96	0x3ccbad70	0.024862975
97	0x3d2cda50	0.042200387
98	0x3e3f9b7e	0.1871166
99	0xbe542c02	-0.20719913
100	0xbde511d8	-0.11185044
101	0x3d8508dc	0.064958304
102	0xbda66374	-0.08124438
103	0x3e0a6d2a	0.13518205
104	0xbe30d180	-0.17267418
105	0x3e15f082	0.14642528
106	0x3d976c28	0.07393676
107	0x3e1b930e	0.15192816
108	0xbd8b7118	-0.0680868
109	0x3bb40c40	0.0054946244
110	0x3e13f8c6	0.14450368
111	0xbe1ff3b6	-0.15620312
112	0xbdc1ee60	-0.094692945
113	0x3dadbf6c	0.084837765
114	0x3e3cc544	0.18434626
115	0xbe74b5b6	-0.23897442
116	0xbe7ac836	-0.24490437
117	0xbdac71f8	-0.08420175
118	0xbe263a62	-0.16233209
119	0x3e1050f8	0.14093387
120	0x3e65543e	0.22395417
121	0xbe4c3258	-0.1994108
122	0x3e5fbbcc	0.21848983
123	0xbdfac49c	-0.122445315
124	0x3e5ac00a	0.2136232
125	0xbd5f92c8	-0.05458334
126	0xbda57f2c	-0.08080897
127	0xbe0434bc	-0.12910742
128	0xbe3bfb7d	-0.18357654
129	0x3e30ef1c	0.17278713
130	0x3d9197ac	0.07109007
131	0xbdd3a350	-0.10333884
132	0x3dfb06ea	0.12257178
133	0x3e707dc6	0.23485479
134	0xbe6407fc	-0.22268671
135	0x3df67294	0.12033573
136	0xbd8903ca	-0.06690176
137	0xbe815c04	-0.25265515
138	0x3e7eb010	0.2487185
139	0xbe0776e3	-0.13228945
140	0x3d2cc320	0.042178273
141	0xbb35e708	-0.0027756114
142	0x3df78c04	0.12087253
143	0xbd2f3808	-0.042778045
144	0xbb244fa6	-0.0025071888
145	0x3e92dfd1	0.28686383
146	0x3e1fdaf0	0.15610862
147	0x3d269f23	0.04067911
148	0x3d8dd3b7	0.06925147
149	0xbe6bcd75	-0.23027594
150	0xbe126efe	-0.14300153
151	0xbe6c1ba2	-0.23057416
152	0xbd9d245b	-0.0767295
153	0xbdb67898	-0.0890972
154	0xbde25a95	-0.110524334
155	0x3d454c2e	0.048168354
156	0x3d92a34a	0.07160051
157	0x3e3a00a7	0.18164311
158	0xbe868e1b	-0.26280293
159	0xbc1f2438	-0.009713225
160	0xbe06015d	-0.13086458
161	0xbe856536	-0.2605378
162	0x3e1bfca6	0.15233096
163	0x3de77aa0	0.11302686
164	0xbd9fe920	-0.07808137
165	0xbe76e680	-0.24111366
166	0x3e597d2e	0.21239159
167	0x3e4ecbb6	0.20194897
168	0x3e194d2a	0.14970842
169	0x3d54acb8	0.05192253
170	0x3e60d454	0.21955997
171	0x3d907df8	0.07055277
172	0xbe219da2	-0.15782788
173	0x3e5efa41	0.21775152
174	0x3e1440ad	0.14477797
175	0x3e3b75bf	0.18306635
176	0x3e133e28	0.1437918
177	0x3dff59f2	0.124683276
178	0xbe4b1168	-0.19830859
179	0x3e2289e9	0.15872921
180	0x3e08906f	0.13336347
181	0x3dc95f40	0.098326206
182	0xbe35e56c	-0.17763299
183	0x3d5bcb88	0.0536609
184	0x3e4d8d59	0.20073451
185	0xbe9311a9	-0.2872441
186	0x3e56782e	0.20944282
187	0xbd6d13e0	-0.057880282
188	0xbdef3f6c	-0.11682019
189	0xbe50e831	-0.20401074
190	0xbe810565	-0.25199428
191	0x3d879787	0.066206984
192	0xbdebb43e	-0.11508988
193	0xbd09ac5a	-0.033611633
194	0x3e201186	0.15631685
195	0x3dc9524d	0.09830151
196	0xbe38f8d9	-0.18063678
197	0xbe149d1b	-0.14513056
198	0x3e086e2e	0.1332328
199	0x3d800be0	0.06252265
200	0x3cb92168	0.022598937
201	0xbc91b413	-0.017786061
202	0xbd92ced2	-0.07168354
203	0x3e7f27a9	0.24917473
204	0xbdb01ad6	-0.085988685
205	0xbe1f6033	-0.15564041
206	0xbd5065ac	-0.05087821
207	0x3d4229d1	0.04740316
208	0x3e3ebb8a	0.18626228
209	0x3e901558	0.28141284
210	0xbdb16e00	-0.08663559
211	0x3d134db8	0.03596279
212	0xbe61646c	-0.22010964
213	0x3d83c01a	0.06433125
214	0x3e1481fe	0.14502713
215	0xbdeb03b8	-0.11475319
216	0x3e76a7e3	0.24087481
217	0xbd8a6b77	-0.067587785
218	0xbdd85ac7	-0.105641894
219	0x3e28a9ff	0.16471098
220	0x3e752b02	0.23942187
221	0xbe2fcca4	-0.17167908
222	0xbe69ed63	-0.22844462
223	0x3e358ff5	0.17730696
224	0x3deb7d8b	0.11498555
225	0xbe0334ef	-0.12813161
226	0xbd3137a8	-0.04326597
227	0x3dabfefe	0.08398245
228	0x3e5a661a	0.21328011
229	0xbe5c9d49	-0.21544375
230	0xbe640f70	-0.22271514
231	0xbd9a36c0	-0.07529974
232	0x3e7bd09d	0.24591298
233	0xbd8e07e7	-0.06935101
234	0x3d035e3b	0.032072287
235	0x3d295882	0.041344173
236	0x39e8314c	0.00044287217
237	0xbe275540	-0.16341114
238	0x3df069ea	0.117389515
239	0xbd64f919	-0.05590162
240	0x3da24390	0.07923043
241	0xbe45c199	-0.19312133
242	0xbe0904a4	-0.13380677
243	0x3c65a50f	0.014016404
244	0xbdca68cc	-0.0988327
245	0x3c8f7676	0.017512541
246	0x3c675ae0	0.014120787
247	0x3e2613b4	0.16218454
248	0xbd9bfdb0	-0.076167464
249	0xbdf689a4	-0.120379716
250	0xbd5708f8	-0.052498788
251	0x3d69e42f	0.05710238
252	0xbe22ec9c	-0.15910572
253	0x3d41620b	0.04721264
254	0xbd0bc520	-0.03412354
255	0x3db8221d	0.089908816

decoder.2.bias f4 [32]
0	0xbcf9ba48	-0.030484334
1	0x3dd4ded0	0.103940606
2	0x3d757117	0.059922304
3	0xbe215e94	-0.15758735
4	0xbe780483	-0.24220471
5	0x3d36921e	0.044572942
6	0xbe1828ac	-0.14859265
7	0xbdef1aa0	-0.11675
8	0x3e78ffec	0.24316376
9	0x3e8bebe9	0.27328423
10	0xbe47edc5	-0.19524296
11	0x3d237568	0.03990689
12	0x3e114d3f	0.14189623
13	0x3dd06340	0.101751804
14	0x3e95f75c	0.29290283
15	0xbe7246be	-0.23659799
16	0x3e2a3c27	0.16624509
17	0xbd923c71	-0.071404345
18	0xbe27697a	-0.1634883
19	0x3d2e1f91	0.042510573
20	0x3e594f98	0.21221769
21	0xbdd61e6b	-0.104550205
22	0x3e8f6744	0.28008473
23	0x3e8532f8	0.2601545
24	0x3c9a36da	0.018824983
25	0x3e4bf0e0	0.19916105
26	0xbe021299	-0.12702407
27	0x3e53d329	0.2068602
28	0xbe4d984d	-0.2007763
29	0xbe357112	-0.17718914
30	0x3d5ccf72	0.053908773
31	0xbe293005	-0.16522224

decoder.4.weight f4 [2, 32]
0	0x3e40b24b	0.18818013
1	0x3cc8333d	0.024438495
2	0xbd8e45df	-0.069469206
3	0xbd8b2a34	-0.06795159
4	0xbd9ebae7	-0.077504925
5	0x3dd4657f	0.10370921
6	0x3d0dab80	0.034587383
7	0x3c18d7f0	0.009328827
8	0x3e045a60	0.129251
9	0xbe3ff5bb	-0.18746082
10	0xbe1c5b65	-0.15269239
11	0xbddd42ca	-0.10803755
12	0xbdb6abef	-0.089195125
13	0xbe4ff23a	-0.20307246
14	0x3cd78d4b	0.02631249
15	0xbda645f5	-0.08118812
16	0xbc265916	-0.010153076
17	0xbd494a46	-0.0491431
18	0xbe0d780c	-0.13815325
19	0x3d4de900	0.050271034
20	0xbe2bc94d	-0.16776009
21	0xbdcadde5	-0.09905604
22	0x3df4bc10	0.119499326
23	0x3df72830	0.12068212
24	0x3e09bd94	0.13451225
25	0xbe4ab9ac	-0.1979739
26	0xbe29df6f	-0.1658914
27	0xbdd53138	-0.10409778
28	0x3e1f3421	0.1554723
29	0x3e25b9ef	0.1618421
30	0x3b4eb86f	0.0031543036
31	0xbe450b3a	-0.19242564
32	0x3dd685ed	0.10474763
33	0xbdf6e780	-0.12055874
34	0x3d2ec75e	0.0426706
35	0xbb368a40	-0.00278534
36	0xbd73dae7	-0.059534933
37	0xbe269cf2	-0.16270807
38	0xbe2c9573	-0.16853885
39	0xbd154f70	-0.03645271
40	0xbd55dcf2	-0.052212663
41	0xbe26dcd9	-0.16295184
42	0xbdad46ef	-0.08460795
43	0x3d582009	0.052764926
44	0x3ddfdb1d	0.109304644
45	0x3bb2f611	0.0054614623
46	0xbd427fc6	-0.047485135
47	0xbdc03aa9	-0.093861885
48	0xbbb947e0	-0.00565432
49	0x3e2f6d2c	0.1713149
50	0x3de3655e	0.11103319
51	0xbe0c1ea9	-0.13683571
52	0x3c5ddff6	0.013542166
53	0x3e06705a	0.13128796
54	0xbe04bad6	-0.12961897
55	0x3c486caa	0.012232939
56	0x3df3c15a	0.11902113
57	0x3db32f15	0.087492146
58	0x3dab7256	0.08371417
59	0xbe3d50dc	-0.18487877
60	0x3d80092f	0.06251752
61	0xbdbb7c22	-0.09154536
62	0x3e3c5186	0.18390474
63	0xbe11361c	-0.14180797

decoder.4.bias f4 [2]
0	0x3da4eaee	0.08052622
1	0x3d8a036a	0.067389324
